Model: "sequential"
_________________________________________________________________
 Layer (type)                Output Shape              Param #   
=================================================================
 conv2d (Conv2D)             (None, 128, 128, 32)      896       
                                                                 
 max_pooling2d (MaxPooling2D  (None, 64, 64, 32)       0         
 )                                                               
                                                                 
 conv2d_1 (Conv2D)           (None, 64, 64, 64)        18496     
                                                                 
 max_pooling2d_1 (MaxPooling  (None, 32, 32, 64)       0         
 2D)                                                             
                                                                 
 conv2d_2 (Conv2D)           (None, 32, 32, 32)        18464     
                                                                 
 max_pooling2d_2 (MaxPooling  (None, 16, 16, 32)       0         
 2D)                                                             
                                                                 
 flatten (Flatten)           (None, 8192)              0         
                                                                 
 dense (Dense)               (None, 64)                524352    
                                                                 
 dropout (Dropout)           (None, 64)                0         
                                                                 
 dense_1 (Dense)             (None, 32)                2080      
                                                                 
 dropout_1 (Dropout)         (None, 32)                0         
                                                                 
 dense_2 (Dense)             (None, 5)                 165       
                                                                 
=================================================================
Total params: 564,453
Trainable params: 564,453
Non-trainable params: 0
_________________________________________________________________
Epoch 1/30
66/66 [==============================] - 109s 2s/step - loss: 0.7962 - accuracy: 0.5199 - val_loss: 0.7012 - val_accuracy: 0.4535
…
